CLASS_2/checkpoints/bigram_bs64_steps10_20250807_211800.pt (torch, 10152 bytes, 1 tensors)

token_embedding_table.weight f4 [44, 44]
0	0x3e3606a5	0.17775972
1	0xbd957d0e	-0.07299243
2	0xbeb9a936	-0.3626191
3	0xbf6b0e0f	-0.91818327
4	0x3f1f6bea	0.6227404
5	0x3cb857ad	0.022502745
6	0x3f739417	0.9514784
7	0x3d7b3fdb	0.061340194
8	0x3eb75d40	0.35813332
9	0x3f95d013	1.1704124
10	0xbfac686d	-1.3469368
11	0xbf035ef3	-0.51316756
12	0x3e74478e	0.23855421
13	0xbe72a065	-0.23693998
14	0xbf6b2ff8	-0.9187007
15	0x3fc526b6	1.5402439
16	0x3fac4279	1.3457786
17	0xbe12113f	-0.14264391
18	0x3e90c8d7	0.2827823
19	0x3f764b38	0.96208525
20	0xc00290ee	-2.0400958
21	0x3efaf05e	0.4901151
22	0x3fbdf200	1.4839478
23	0x3f1687c2	0.588009
24	0x3dfbf1a9	0.123019524
25	0xbfc8671c	-1.5656466
26	0xbf94df9e	-1.1630743
27	0xbeacf8fd	-0.33783713
28	0x3ee3b691	0.44475225
29	0xbf4dfc0c	-0.8046272
30	0x3fc2a1b1	1.5205594
31	0x40205a39	2.5055068
32	0xbf2a8462	-0.6660825
33	0xbe82303c	-0.25427425
34	0x3f80e8ed	1.0071083
35	0x3df2c360	0.11853671
36	0x3e1f1e14	0.15538818
37	0x3f90c3e9	1.1309787
38	0xbf941449	-1.156869
39	0xbe9a505b	-0.3013943
40	0xbf02b1f5	-0.5105279
41	0xbf6d4951	-0.92689997
42	0x3f0b2ed8	0.5436835
43	0xbfbfb5ec	-1.4977393
44	0xbf9ab5b4	-1.2086701
45	0x3f119da5	0.5688117
46	0xbf1836c0	-0.5945854
47	0xbf325762	-0.69664586
48	0x3fd23d65	1.6424986
49	0xbf4e536a	-0.8059603
50	0x3fac97b0	1.3483791
51	0xbe8ecc41	-0.27890208
52	0xbfc117b9	-1.5085365
53	0x40068293	2.1017196
54	0x4030a1f1	2.759884
55	0xbfdf2f84	-1.7436376
56	0x3fb96a49	1.4485561
57	0xbfc1b17b	-1.5132288
58	0x3f517183	0.8181383
59	0xbe56297e	-0.20914266
60	0x3f48273e	0.7818488
61	0x3fc3e43d	1.5304028
62	0x3fce6a0d	1.6126114
63	0xbeccfee7	-0.40038225
64	0xbf54db70	-0.83147335
65	0x3f192bde	0.5983256
66	0xbd48a77c	-0.04898785
67	0xbd87bbed	-0.06627641
68	0xbeffcd8e	-0.49961513
69	0x3eecedc1	0.46275142
70	0xbe825094	-0.254521
71	0xbf883ee6	-1.0644195
72	0x40006082	2.0058904
73	0xbf08c2e1	-0.5342236
74	0x3e6711b2	0.22565344
75	0x3f3285d9	0.69735485
76	0xbfb6fd83	-1.4296116
77	0x3f672611	0.9029246
78	0x3e1705c3	0.14748292
79	0x3e6c716e	0.23090145
80	0x401f2957	2.4868982
81	0xbf9d020d	-1.2266251
82	0x3f813904	1.0095525
83	0x3f0d90ab	0.5529887
84	0xbfcc57f0	-1.5964336
85	0xbfa30549	-1.2735988
86	0x3f2ff3db	0.6873147
87	0xbe4be62e	-0.19912025
88	0x3eaf1c1b	0.3420113
89	0xbeb08579	-0.34476832
90	0x3ef2286a	0.47296458
91	0xbf44eadf	-0.76920885
92	0xbed7fbbd	-0.4218425
93	0xbee13727	-0.4398739
94	0xbf80854f	-1.0040683
95	0xbed31a12	-0.41230828
96	0xbfd5bb35	-1.6697756
97	0xbfaf1a67	-1.3679932
98	0xbe2c741f	-0.16841172
99	0x3f75969f	0.95932955
100	0x3ceabe4c	0.028655194
101	0xbf3ea954	-0.74477124
102	0xbe99f1d1	-0.30067304
103	0x3c69d6d9	0.014272415
104	0xbe386f0e	-0.18011114
105	0xbe0b96fa	-0.13631812
106	0x3e950541	0.2910557
107	0x3fb0e5ff	1.3820189
108	0x3df1b28b	0.118016325
109	0x40227bfb	2.5388172
110	0xbf24b176	-0.64333284
111	0xbffd090d	-1.9768387
112	0xbeaa371f	-0.3324518
113	0x3ba5ffb5	0.005065883
114	0x3f6c5e4e	0.923314
115	0xbff195e5	-1.8873869
116	0x3e280055	0.16406377
117	0x3ee9538a	0.45571548
118	0xbfe26ff7	-1.7690419
119	0x3f154473	0.5830757
120	0x3fdfc144	1.7480855
121	0x3e8e3e88	0.27782083
122	0x3ea0b0a3	0.31384763
123	0xbf2818ec	-0.6566303
124	0xbf29166f	-0.66049856
125	0x3ea18f5d	0.3155469
126	0xbf0d6e24	-0.55246186
127	0xbfbbdfe1	-1.4677697
128	0xc003bb9b	-2.0583255
129	0x3fe989ae	1.8245142
130	0x3fa679e5	1.3005949
131	0xbee7f108	-0.4530108
132	0x3fac0fd2	1.3442328
133	0x3fd8cdbe	1.6937788
134	0xbe025826	-0.12728938
135	0xbfd7b34e	-1.6851594
136	0xbcf14b00	-0.029454708
137	0x3d91d101	0.071199425
138	0x3f864042	1.048836
139	0x3f2cce70	0.675025
140	0x3e9b8b64	0.30379784
141	0xbf4003c5	-0.7500575
142	0x3f3d998b	0.7406241
143	0x3f628127	0.8847832
144	0x4012358e	2.2845187
145	0x3f7550a3	0.95826167
146	0xbfc42896	-1.5324886
147	0xbe968f71	-0.29406312
148	0xbdef32bb	-0.11679598
149	0xbea20d08	-0.31650567
150	0xbf21d3e1	-0.63213927
151	0x3f915c2c	1.1356254
152	0xbf7e7cac	-0.99408984
153	0x3e2b25d1	0.16713645
154	0x3f9c6a1e	1.2219884
155	0xbe731388	-0.2373792
156	0xbf87ad43	-1.059975
157	0xbf283756	-0.65709436
158	0x3fcb4339	1.587989
159	0xbf33cb0d	-0.70231706
160	0xbf661cb4	-0.8988755
161	0x3d81b956	0.06334178
162	0xbd722e18	-0.05912599
163	0x4015a6cb	2.3383052
164	0xc02e79ce	-2.7261844
165	0x3f01be50	0.5068102
166	0xbf5139f3	-0.8172905
167	0xbe7eda78	-0.24888027
168	0x3ad9b337	0.0016609196
169	0x4002d967	2.0445192
170	0xbe243ccd	-0.16038819
171	0xbe62d3d7	-0.22151123
172	0xbfad67ee	-1.3547342
173	0xbd764700	-0.060126305
174	0xbfedaa7a	-1.856765
175	0xbfb19fea	-1.3876927
176	0xbeb20d5a	-0.3477581
177	0xbf947e22	-1.1600993
178	0x3e118491	0.14210726
179	0x3e27e23f	0.163949
180	0x3f3f911b	0.7483079
181	0x3f69289e	0.910776
182	0xbfdd726e	-1.7300546
183	0x3fa6cd00	1.3031311
184	0x3f74f90d	0.9569252
185	0x3f875e35	1.0575625
186	0x3f20a23e	0.6274756
187	0xbfa4fdcd	-1.2889954
188	0xbf3098ab	-0.6898295
189	0x4008b0b4	2.135785
190	0x3f024fa3	0.50902766
191	0x3f9bbc54	1.2166848
192	0x3e4121b8	0.18860519
193	0xbeb09259	-0.34486654
194	0x3fe583d3	1.7930855
195	0x3fb1cc56	1.3890483
196	0x3f89be57	1.0761212
197	0xbf1e077d	-0.61730176
198	0xbeec237d	-0.46120825
199	0x3f10aa1a	0.56509554
200	0x3c82696f	0.015919415
201	0xbfd4e2a0	-1.663166
202	0x3f8ea895	1.1145197
203	0x3f046bbd	0.51726896
204	0xbf9f5044	-1.244637
205	0xbf76d333	-0.96416014
206	0xbdb2ec5b	-0.087364875
207	0x3dedea30	0.11616933
208	0x3e979469	0.29605415
209	0xbf3a8c5d	-0.7287043
210	0xbea0e28f	-0.3142285
211	0xbeeab2e7	-0.45839617
212	0x3f24457e	0.64168537
213	0x3f1ada42	0.60489285
214	0x3f9e5e4a	1.2372525
215	0x3f3ae800	0.73010254
216	0x3f0075e4	0.50179887
217	0x3f5e73c1	0.86895376
218	0xbe8d93df	-0.2765188
219	0xbf3fce26	-0.7492393
220	0xbf15ea30	-0.58560467
221	0x3ebc27b6	0.36749047
222	0xbf0ed883	-0.5579912
223	0xbecd223e	-0.40065187
224	0xbf159106	-0.58424413
225	0xbe649160	-0.22321081
226	0x3c36bd0a	0.011153469
227	0xbe9dc087	-0.3081095
228	0xbd0635af	-0.03276604
229	0x3f51b6fd	0.8191984
230	0xbb02d7c4	-0.0019965032
231	0xbee64b06	-0.44979113
232	0x3f5167a3	0.8179876
233	0xbfc29246	-1.5200889
234	0x3f1d0c64	0.6134703
235	0xbfeefdc5	-1.8671194
236	0xbf79ae2f	-0.9753141
237	0x3d7931bb	0.060838442
238	0xbeea163e	-0.45720094
239	0xbed58f8b	-0.41711077
240	0x3fbf85df	1.4962729
241	0xbd2d0d14	-0.0422488
242	0xbf4eb5bb	-0.8074605
243	0xbf9517f9	-1.1647941
244	0x3ed97aa4	0.4247638
245	0xbe918fb7	-0.28429958
246	0xbc78513c	-0.0151560865
247	0xbf61598a	-0.8802725
248	0xbea65362	-0.3248549
249	0x3e38f052	0.18060425
250	0xbf6ec294	-0.9326565
251	0xbfa02486	-1.2511146
252	0x3f8ef1e5	1.116757
253	0xbff482f6	-1.9102466
254	0xbf07a98d	-0.5299309
255	0x3f8a03c0	1.0782394
