CLASS_2/checkpoints/bigram_bs128_steps2000_20250807_214823.pt (torch, 10167 bytes, 1 tensors)

token_embedding_table.weight f4 [44, 44]
-0.40143472 -0.65085036 -0.9389313 -1.4915196 0.04117887 -0.55586374 0.3681706 -0.51723415
-0.22202112 1.6814486 -0.7535008 -1.0886741 0.7970505 0.32466736 -0.42756647 0.95381206
0.7603796 -0.7201304 -0.296971 0.37872076 -2.6073248 -0.09074104 0.8978094 0.006632332
-0.4558833 -2.1354845 -1.7350886 -0.9142818 -0.13586263 -1.3785747 0.9342293 1.9139595
-1.2407708 -0.8311657 0.42350474 -0.4603425 -0.42368636 0.54671675 -1.7289165 -0.87803334
-1.0860482 -1.50019 -0.037457664 -2.0679424 -1.764003 0.0040459028 -0.07816701 -1.2547004
1.0720404 -1.3634351 0.77948284 -0.83917266 -0.9401533 1.5288312 2.1835144 -1.1703298
0.87912554 -2.066945 0.25204983 0.25011116 1.2960106 1.0083576 2.1102974 0.17422758
-0.23669416 0.61967003 0.3637327 -0.447625 -1.0468297 -0.10145272 0.29856443 -0.4778854
1.4335058 -0.023815785 0.77211475 0.63026214 -1.9837743 0.33638772 0.68667364 0.77834374
1.9119673 -1.7818627 0.73186564 -0.011693292 -2.1497047 -1.8285878 0.12192025 -0.7598148
-0.23518093 -0.91822714 -0.10493297 -1.3403243 -0.99487776 -1.0128103 -1.5738679 -0.98539597
-2.2357206 -1.9357115 -0.74283373 0.37881795 -0.5468405 -1.316021 -0.8743728 -0.5611452
-0.7544698 -0.71091604 -0.28586072 0.7992514 -0.45796385 1.9498782 -1.2151468 -2.540924
-0.90597814 -0.5703018 0.34299555 -2.4520264 -0.41216612 -0.12208918 -2.3343945 0.0045843986
1.1633626 -0.2990243 0.8868512 -1.2283703 -1.2322171 -0.26150197 -1.1247759 -2.034914
-2.6219003 1.2393837 0.71826136 -1.025875 0.77056384 2.249641 -0.6930107 -2.2419684
-0.59571266 -0.4956076 0.4767495 0.10494684 -0.26427382 -1.3123227 0.17019175 0.3135758
1.7058319 0.38665974 -2.0902216 -0.8588667 -0.6825743 -0.8811867 -1.1950666 0.56307226
-1.554971 -0.40019277 0.6489744 -0.8024956 -1.6204786 -1.2198832 1.0130126 -1.2648524
-1.4603006 -0.50342256 -0.6252215 1.7593286 -3.2759936 -0.062360298 -1.379178 -0.8139335
-0.56476605 1.4671144 -0.725929 -0.78671587 -1.9135256 -0.6262163 -2.4125135 -1.9462887
-0.925429 -0.5740639 -0.4382432 -0.41651958 0.16468278 0.32627696 -2.2997897 0.71652997
0.3721777 0.47227588 0.044500142 -1.8613529 -1.2656019 1.5447369 -0.07330876 0.6305452
-0.3919979 -0.9225535 1.2038667 0.80198586 0.4907351 -1.1934795 -1.0382522 -0.017543584
-0.56374377 -2.2333033 0.5289274 -0.06511225 -1.817253 -1.5383892 -0.66646445 -0.46404034
-0.2851314 -1.3042592 -0.8920834 -1.0354552 0.0586338 0.022039428 0.65100193 0.14657545
-0.08049908 0.284678 -0.854583 -1.3246769 -1.1609393 -0.213017 -1.1334779 -0.9769983
-1.1595858 -0.8005243 -0.5674314 -0.8849621 -0.6111142 0.23626691 -0.5805104 -1.0258693
0.23506252 -2.0901802 0.03164225 -2.435184 -0.39128193 -0.5180151 -1.033239 -0.99336714
0.90972275 -0.62054485 -1.3815732 -1.736913 -0.1560514 -0.8612811 -0.59359896 -1.453981
-0.9016159 -0.39889613 -1.5060748 -1.8227452 0.53223515 -2.478048 -1.1055733 0.4939231
00000000: da88 cdbe 219e 26bf cd5d 70bf 1dea bebf
00000010: 2dab 283d 164d 0ebf db80 bc3e 7569 04bf
00000020: 8159 63be b539 d73f 6ee5 40bf ac59 8bbf
00000030: 800b 4c3f cd3a a63e fee9 dabe 072d 743f
00000040: 3da8 423f 775a 38bf 950c 98be b0e7 c13e
00000050: 69de 26c0 70d6 b9bd d6d6 653f 0954 d93b
00000060: 8969 e9be c7ab 08c0 6217 debf 5f0e 6abf
00000070: 931f 0bbe 2375 b0bf a729 6f3f a0fc f43f
00000080: 94d1 9ebf 46c7 54bf 9dd5 d83e 03b2 ebbe
00000090: 6bed d8be a1f5 0b3f 234d ddbf cbc6 60bf
000000a0: a103 8bbf 3a06 c0bf 356d 19bd 2b59 04c0
000000b0: daca e1bf 7e93 843b 0616 a0bd 069a a0bf
000000c0: 9f38 893f 0b85 aebf 308c 473f 05d4 56bf
000000d0: e3ad 70bf beb0 c33f b3be 0b40 5ecd 95bf
000000e0: 5f0e 613f d448 04c0 ad0c 813e 920e 803e
000000f0: ade3 a53f dd11 813f 1d0f 0740 b768 323e
00000100: f45f 72be b2a2 1e3f 2c3b ba3e 1b2f e5be
00000110: 84fe 85bf 72c6 cfbd 70dd 983e 65ad f4be
00000120: 1e7d b73f 5219 c3bc 50a9 453f dc58 213f
00000130: 51ec fdbf 033b ac3e d8c9 2f3f 8941 473f
00000140: 58bb f43f 1414 e4bf 8c5b 3b3f 3995 3fbc
00000150: c394 09c0 2a0f eabf 53b1 f93d 3983 42bf
00000160: 45d3 70be ef10 6bbf 19e7 d6bd bf8f abbf
00000170: 4fb0 7ebf c5a3 81bf 8174 c9bf e942 7cbf
00000180: 0c16 0fc0 65c5 f7bf 5a2a 3ebf 6df4 c13e
00000190: bdfd 0bbf 6073 a8bf e5d6 5fbf 36a7 0fbf
000001a0: ef24 41bf 98fe 35bf 565c 92be bd9b 4c3f
000001b0: 3d7a eabe 9c95 f93f ee89 9bbf 809e 22c0
000001c0: 2fee 67bf 4cff 11bf 1d9d af3e 00ee 1cc0
000001d0: 7007 d3be e409 fabd b866 15c0 b938 963b
000001e0: 11e9 943f b719 99be ae08 633f 3d3b 9dbf
000001f0: 4ab9 9dbf 96e3 85be a8f8 8fbf 083c 02c0
00000200: 37cd 27c0 20a4 9e3f fadf 373f df4f 83bf
00000210: ac43 453f 1efa 0f40 2669 31bf 697c 0fc0
00000220: a080 18bf 48c0 fdbe 8318 f43e 5eee d63d
00000230: e64e 87be 31fa a7bf bf46 2e3e 028d a03e
00000240: b358 da3f 44f8 c53e 31c6 05c0 b0de 5bbf
00000250: 30bd 2ebf 7495 61bf f1f7 98bf 8125 103f
00000260: 4a09 c7bf 11e6 ccbe 3023 263f 5a70 4dbf
00000270: d86b cfbf 2225 9cbf 66aa 813f afe6 a1bf
00000280: 21eb babf 4de0 00bf 840e 20bf ae31 e13f
00000290: e1a9 51c0 836d 7fbd e888 b0bf f25d 50bf
000002a0: 8294 10bf 68ca bb3f 7cd6 39bf 3666 49bf
000002b0: 68ee f4bf b64f 20bf 9f66 1ac0 fd1f f9bf
000002c0: eae8 6cbf daf5 12bf 6a61 e0be 0e42 d5be
000002d0: 9aa2 283e c60d a73e c12f 13c0 826e 373f
000002e0: 138e be3e 25ce f13e c845 363d d040 eebf
000002f0: 3eff a1bf f0b9 c53f e722 96bd 696b 213f
00000300: f3b3 c8be 772c 6cbf 4e18 9a3f f24e 4d3f
00000310: a241 fb3e f0c3 98bf 73e5 84bf 90b7 8fbc
00000320: 8351 10bf 71ee 0ec0 c967 073f 9259 85bd
00000330: bf9b e8bf f0e9 c4bf 6a9d 2abf b296 edbe
00000340: befc 91be f7f1 a6bf 945f 64bf cc89 84bf
00000350: ff29 703d 088c b43c 10a8 263f e017 163e
00000360: b4dc a4bd 51c1 913e f4c5 5abf 038f a9bf
00000370: a999 94bf 2121 5abe ce15 91bf 901c 7abf
00000380: 4f6d 94bf 29ef 4cbf 2f43 11bf e08c 62bf
00000390: fb71 1cbf f4ef 713e 549c 14bf af4f 83bf
000003a0: 3bb4 703e 83c5 05c0 4e9b 013d 0eda 1bc0
000003b0: 1b56 c8be a39c 04bf 2d41 84bf 4f4d 7ebf
000003c0: 97e3 683f 07dc 1ebf 64d7 b0bf 2a53 debf
000003d0: f0cb 1fbe eb7c 5cbf 1af6 17bf 0d1c babf
000003e0: 4dd0 66bf 1d3c ccbe 0fc7 c0bf b74f e9bf
000003f0: 9040 083f 5798 1ec0 6d83 8dbf 7de3 fc3e
